backend/processors/best_model.pth (torch, 377060 bytes, 7 tensors)

features.0.weight f4 [32, 3, 3, 3]
-0.12520993 -0.06558121 0.19833857 0.13371031 0.09803712 -0.07806145 -0.007376847 -0.10557907
-0.069195874 -0.11609908 0.03146194 -0.23705395 0.095060974 -0.13044403 -0.07338919 0.003329825
-0.17049024 0.042230766 -0.01366475 -0.1475435 -0.07715962 -0.012426883 -0.047081925 0.07538426
0.23282215 0.10742989 0.15760793 0.16099617 0.10803884 0.004753768 0.11496261 -0.09967207
-0.004264124 0.11483002 -0.18287 -0.040522173 0.08951547 0.08679398 0.2109816 0.20647223
0.25715363 -0.12341775 0.04437191 0.14187308 -0.061833348 -0.04826672 0.07710646 0.007373336
0.084660165 0.051412165 -0.15028419 0.1651797 0.013656429 0.0011081098 0.17062421 0.026764305
0.3241893 -0.07637269 0.20993735 -0.09946238 -0.20625058 -0.17481732 -0.06262277 0.09405201
-0.00583722 0.09866962 -0.214875 -0.09131669 -0.09861612 -0.3497078 0.03285509 -0.11522413
-0.0012929731 0.18548374 0.16757143 -0.17918994 0.15086402 0.10921722 -0.07960057 -0.10475324
0.07695713 -0.12518102 -0.083510675 0.08217781 -0.0760433 -0.18786591 -0.1181212 0.00845125
0.03455985 0.06236616 0.13008875 0.17455281 0.016669706 0.0064901137 0.23365685 -0.098384604
0.18778221 0.07453694 0.19593339 -0.10327291 -0.19557813 -0.12365734 -0.21984167 0.15144391
-0.018877147 -0.16023883 0.058236957 0.0858589 0.08441314 -0.02496822 0.13911287 0.1244031
0.10859653 0.1396175 0.21149749 -0.0050352407 0.0004927905 -0.0145994155 0.007614073 0.14815415
-0.0004178873 -0.19265366 0.025392413 -0.056363598 -0.16573696 -0.1177409 -0.0068415366 -0.17888045
-0.09531657 -0.13552345 0.121233955 -0.19324948 -0.09474094 0.15469004 0.11070233 -0.2087267
0.15279366 0.106770135 -0.38323712 -0.060914546 0.19614722 -0.13537675 0.016279528 -0.08215577
-0.15602402 -0.09548156 0.14342348 -0.41291997 0.22721313 0.21146356 -0.18780664 0.11696325
-0.036081478 0.0527858 0.037270382 0.14515954 -0.1845676 -0.005638775 -0.050537966 -0.110601395
-0.026831903 0.22690305 -0.71892416 0.046809107 -0.25201446 0.026609901 0.045961753 0.014611872
0.18618956 0.18728127 0.096624374 -0.71063125 -0.07359381 0.051923178 0.16446435 -0.14015862
-0.120377265 0.18507668 -0.11390186 -0.026708042 -0.16269657 -0.09439131 -0.048600446 0.10334217
0.21201989 0.1528431 -0.06159108 0.034685746 0.13322552 0.04727803 0.010190388 0.1650799
0.017552773 -0.03828284 0.24961188 -0.08728981 0.14254582 0.15088746 0.033599593 -0.17194247
-0.08203233 0.053503208 0.14515933 -0.052315835 -0.15635088 0.00541295 0.053478226 -0.08156238
-0.09337888 -0.12840293 0.021054486 0.088632375 -0.14806114 -0.082488365 -0.06520338 -0.12994033
-0.14684825 -0.15245724 0.05030824 0.1176638 -0.15671849 -0.08609329 -0.12677681 0.12326387
0.022666682 -0.15086494 -0.068236314 0.029055746 0.08851464 -0.042739227 -0.015715923 -0.084411934
-0.007003908 -0.20139378 0.060633346 0.2431663 0.11567909 0.1382409 -0.07569892 0.091105044
0.1300835 0.020538362 0.04603294 0.09636025 -0.013588238 0.13582936 0.21656527 -0.0857737
0.21159488 0.20272826 0.18231158 0.1357395 0.19751063 0.03614259 -0.10706516 0.08947666
00000000: 0837 00be 714f 86bd 4419 4b3e 5beb 083e
00000010: b0c7 c83d aede 9fbd 7ab9 f1bb d739 d8bd
00000020: 91b6 8dbd 5bc5 edbd 3cde 003d 45be 72be
00000030: 54af c23d 1f93 05be 124d 96bd 3139 5a3b
00000040: fe94 2ebe 2bfa 2c3d 1ee2 5fbc a515 17be
00000050: dd05 9ebd 209a 4bbc fad8 40bd 1063 9a3d
00000060: ee68 6e3e 3404 dc3d f963 213e 2edc 243e
00000070: 7843 dd3d 7fc5 9b3b 8471 eb3d df20 ccbd
00000080: 11ba 8bbb 002c eb3d 4642 3bbe 94fa 25bd
00000090: e353 b73d 0bc1 b13d 900b 583e 756d 533e
000000a0: a4a9 833e 72c2 fcbd 52bf 353d 2d47 113e
000000b0: f744 7dbd 53b3 45bd fee9 9d3d 069c f13b
000000c0: 4f62 ad3d 9095 523d 19e4 19be de24 293e
000000d0: 37bf 5f3c ff3d 913a 1db8 2e3e d140 db3c
000000e0: 24fc a53e 4969 9cbd d1f9 563e efb2 cbbd
000000f0: 5a33 53be 5003 33be 5e40 80bd 579e c03d
00000100: 2646 bfbb 4c13 ca3d 3108 5cbe 3f04 bbbd
00000110: 40f7 c9bd e70c b3be 0f93 063d a1fa ebbd
00000120: fa78 a9ba 73ef 3d3e d897 2b3e 917d 37be
00000130: 197c 1a3e 47ad df3d a005 a3bd de88 d6bd
00000140: b39b 9d3d 742f 00be a507 abbd d74c a83d
00000150: 97bc 9bbd ec5f 40be 87e9 f1bd 1d77 0a3c
00000160: a18e 0d3d a973 7f3d fc35 053e f9bd 323e
00000170: e88e 883c 05ab d43b be43 6f3e de7d c9bd
00000180: fb49 403e d3a6 983d c3a2 483e bf80 d3bd
00000190: a245 48be 0f40 fdbd 2d1e 61be 1d14 1b3e
000001a0: 3fa4 9abc a615 24be e089 6e3d cad6 af3d
000001b0: cce0 ac3d 278a ccbc 9b73 0e3e 0dc7 fe3d
000001c0: dc67 de3d e4f7 0e3e cc92 583e a9fe a4bb
000001d0: 9c2e 013a 6332 6fbc 797f f93b b9b5 173e
000001e0: e217 dbb9 0047 45be c003 d03c 84dd 66bd
000001f0: f3b6 29be 2422 f1bd f82e e0bb 702c 37be
00000200: 5535 c3bd a9c6 0abe 8249 f83d 31e3 45be
00000210: 8a07 c2bd 1167 1e3e e7b7 e23d 74bc 55be
00000220: f175 1c3e 4daa da3d a837 c4be 8881 79bd
00000230: d1da 483e 34a0 0abe a55c 853c 4941 a8bd
00000240: c3c4 1fbe d68b c3bd 9bdd 123e 3f6a d3be
00000250: 8faa 683e e789 583e 6250 40be 6e8a ef3d
00000260: 2cca 13bd ec35 583d d4a8 183d b4a4 143e
00000270: 4aff 3cbe 79c5 b8bb e600 4fbd fc82 e2bd
00000280: 94ce dbbc 4659 683e 6a0b 38bf e8ba 3f3d
00000290: 0a08 81be 02fd d93c 6442 3c3d a266 6f3c
000002a0: 7aa8 3e3e a9c6 3f3e 00e3 c53d eeeb 35bf
000002b0: 5ab8 96bd 66ad 543d 5869 283e be85 0fbe
000002c0: 5b88 f6bd be84 3d3e 6145 e9bd d3ca dabc
000002d0: ee99 26be 3b50 c1bd 4311 47bd 0fa5 d33d
000002e0: be1b 593e e782 1c3e ee46 7cbd a412 0e3d
000002f0: 456c 083e 9ca6 413d 96f5 263c b50a 293e
00000300: d5ca 8f3c 78ce 1cbd 429a 7f3e 00c5 b2bd
00000310: 88f7 113e 3e82 1a3e ba9f 093d b011 30be
00000320: 9100 a8bd 2e26 5b3d a6a4 143e 2149 56bd
00000330: 721a 20be 1e5f b13b fc0b 5b3d 2d0a a7bd
00000340: 6d3d bfbd 0f7c 03be 757a ac3c e484 b53d
00000350: 579d 17be a9ef a8bd 5a89 85bd 140f 05be
00000360: 635f 16be c01d 1cbe 0310 4e3d b8f9 f03d
00000370: d07a 20be ae51 b0bd c8d1 01be c571 fc3d
00000380: 7aaf b93c 577c 1abe 7bbf 8bbd 5106 ee3c
00000390: 2a47 b53d 540f 2fbd aebe 80bc 2ae0 acbd
000003a0: 0a81 e5bb 2c3a 4ebe ac5a 783d 9600 793e
000003b0: 29e9 ec3d 068f 0d3e 0908 9bbd 4895 ba3d
000003c0: 9c34 053e 1140 a83c 098d 3c3d 8658 c53d
000003d0: 33a1 5ebc da16 0b3e 49c3 5d3e 1faa afbd
000003e0: 54ac 583e ff97 4f3e e3af 3a3e 4cff 0a3e
000003f0: 3a40 4a3e 410a 143d fb44 dbbd 8a3f b73d

features.0.bias f4 [32]
0.20938216 -0.36465755 0.1311137 0.01139674 -0.081225015 -0.10677275 -0.087270215 -0.15072986
0.13344741 -0.060416974 0.16278681 0.18799485 -0.093024515 -0.017480515 0.0036824984 -0.10542156
-0.045264754 0.12851152 -0.059117 -0.045611426 -0.054372486 -0.18957986 0.146001 -0.14629653
-0.037616048 0.1297381 0.23253721 -0.1446127 0.17786252 0.13491365 0.004139182 -0.20055123
00000000: 4768 563e 65b4 babe ab42 063e 64b9 3a3c
00000010: 4d59 a6bd acab dabd baba b2bd ee58 1abe
00000020: 70a6 083e ca77 77bd 96b1 263e b981 403e
00000030: a383 bebd 4c33 8fbc 1256 713b 42e7 d7bd
00000040: 8967 39bd 8698 033e ab24 72bd 0cd3 3abd
00000050: afb5 5ebd 3921 42be 4981 153e c2ce 15be
00000060: 4913 1abd 11da 043e 3c1e 6e3e 5a15 14be
00000070: 9821 363e ce26 0a3e faa1 873b 4d5d 4dbe

features.3.weight f4 [64, 32, 3, 3]
0.0906571 0.04647189 0.04161462 0.02988964 0.09571707 0.09329558 -0.08386519 -0.0759422
-0.062496588 0.08239774 -0.108291216 0.009278475 -0.008393285 -0.002339887 -0.0075888014 0.10592573
0.12875299 0.07737945 0.27708095 0.31653127 0.29694015 -0.09012758 -0.050886042 -0.055393923
-0.09597787 -0.18661831 -0.13160226 0.02930236 0.0111502325 0.046925865 0.13465184 0.13022344
0.118009225 0.04869877 0.0239808 0.07074486 -0.04721563 -0.07300083 -0.045517046 -0.117584005
-0.09540869 -0.07758316 -0.063325696 -0.15478553 -0.09079643 -0.07311881 -0.09868429 -0.1714315
0.06452321 -0.08905434 0.000283167 0.21715756 -0.009493284 -0.06837381 -0.1991351 -0.14580853
-0.18893376 -0.075064205 -0.08588167 -0.006292079 -0.20249738 -0.21746528 -0.21681276 0.009314975
-0.025437567 -0.024416892 -0.0648677 -0.13802838 -0.15530898 -0.036175564 -0.0061907587 -0.023750722
0.019092927 -0.07084486 -0.054087713 -0.039214183 -0.06963843 -0.044565845 -0.08101039 -0.03508287
0.022420859 -0.09278698 -0.05302611 -0.029567385 0.054434873 -0.008897468 -0.04952078 0.013926645
0.045396753 0.020387644 -0.052746836 -0.031762965 -0.039568022 -0.05911847 -0.034013398 0.01991711
0.019092288 -0.037808314 -0.050313596 -0.11843716 -0.05822788 -0.0016974322 -0.03397887 0.013206391
-0.08540036 0.07014555 0.039115243 0.046304964 -0.07313422 -0.053910766 -0.025370687 0.07238942
0.054723725 -0.00024220273 0.015819484 0.004939304 -0.028329853 -0.12982233 -0.16356705 -0.05233026
-0.016644068 -0.03519895 0.013319829 0.08150699 0.056936722 0.063601136 -0.02381936 -0.13771887
-0.0265797 -0.008061399 -0.049796898 -0.01210132 -0.042285584 -0.08093033 -0.068447314 -0.12968771
-0.08896145 0.0139465695 0.04813366 -0.026683431 0.030236434 0.08598942 0.010290505 0.07393321
0.04600186 0.07170023 0.03325894 0.01589569 0.057163376 0.0972155 0.0065375045 0.006080314
0.03272113 0.091269724 0.11134023 0.11097602 -0.005544653 -0.030394893 0.001664968 -0.23622483
-0.26598445 -0.19273387 -0.16273345 -0.20127404 -0.0123764295 -0.1007993 -0.16385059 -0.09822851
0.01158234 -0.02853771 0.027684467 -0.052320443 -0.1238546 -0.1465045 0.0104384795 0.020829407
0.010252573 0.08942915 0.01420287 -0.02396641 0.024696367 0.07735755 0.046285816 0.13726294
0.15803309 0.14469272 -0.00368498 -0.001888782 -0.08223111 -0.13193004 -0.20930131 -0.08971684
0.026720984 0.04514948 0.02301917 0.06564017 0.11340634 0.073173665 0.2899094 0.24951588
0.2273523 0.102035955 0.04571409 0.11000159 -0.2358547 -0.25647694 -0.14550707 -0.094471544
-0.14125134 -0.06458008 0.06799542 -0.0071534324 -0.0025792778 0.06545737 0.028891006 0.0038647347
-0.09620077 -0.116886094 -0.05817918 -0.037378553 -0.05966244 -0.018631952 0.0956608 0.101208605
0.081623025 -0.052563556 -0.058893926 -0.05546683 -0.047983106 0.02050837 -0.043149747 -0.023199126
0.07946809 0.055475183 0.23957428 0.21584848 0.20400858 0.020425467 -0.002261277 0.071957365
-0.16802704 -0.20000216 -0.12528068 -0.10927501 -0.11995131 -0.06471736 -0.00785679 -0.06447695
-0.0024376719 0.10655138 0.064130045 0.018076994 -0.035177484 -0.08842344 -0.06353264 -0.033902355
00000000: 6eaa b93d 4f59 3e3d 1774 2a3d 1edb f43c
00000010: 5007 c43d c111 bf3d 83c1 abbd 9687 9bbd
00000020: 6cfc 7fbd 25c0 a83d c9c7 ddbd bf04 183c
00000030: fd83 09bc ca58 19bb 7bab f8bb 97ef d83d
00000040: d3d7 033e 1e79 9e3d 8edd 8d3e 6310 a23e
00000050: 8a08 983e cf94 b8bd e26d 50bd bde4 62bd
00000060: 0c90 c4bd df18 3fbe bec2 06be 810b f03c
00000070: 77af 363c 5635 403d 2ce2 093e 4b59 053e
00000080: d2ae f13d 5d78 473d 6273 c43c aee2 903d
00000090: 2d65 41bd 7681 95bd 1570 3abd e2cf f0bd
000000a0: a265 c3bd ebe3 9ebd e7b0 81bd 1980 1ebe
000000b0: 7bf3 b9bd 51bf 95bd fd1a cabd bd8b 2fbe
000000c0: bf24 843d 1f62 b6bd 0876 9439 8d5e 5e3e
000000d0: b889 1bbc 9107 8cbd 12ea 4bbe d54e 15be
000000e0: da77 41be 43bb 99bd bbe2 afbd c92d cebb
000000f0: 795b 4fbe 38af 5ebe 2a04 5ebe d69d 183c
00000100: 7262 d0bc ef05 c8bc 5bd9 84bd 5057 0dbe
00000110: 5109 1fbe d42c 14bd d9db cabb e090 c2bc
00000120: c568 9c3c 1c17 91bd 148b 5dbd 0d9f 20bd
00000130: 989e 8ebd ad8a 36bd c6e8 a5bd 0eb3 0fbd
00000140: f3ab b73c 1a07 bebd e831 59bd 4d37 f2bc
00000150: 1af7 5e3d b0c6 11bc 4dd6 4abd 952c 643c
00000160: f2f1 393d fd03 a73c 110d 58bd e219 02bd
00000170: 1412 22bd 3526 72bd a251 0bbd 3529 a33c
00000180: 6e67 9c3c e4dc 1abd a115 4ebd 2f8f f2bd
00000190: 5c80 6ebd 607c deba 6d2d 0bbd 9e5f 583c
000001a0: 62e6 aebd 78a8 8f3d 4e37 203d 46aa 3d3d
000001b0: 65c7 95bd 89d1 5cbd 30d6 cfbc e740 943d
000001c0: fc25 603d cdf7 7db9 dd97 813c e3d9 a13b
000001d0: 0214 e8bc 25f0 04be 1f7e 27be 4158 56bd
000001e0: 2459 88bc c62c 10bd 693b 5a3c 23ed a63d
000001f0: 7b36 693d 5041 823d d220 c3bc 2d06 0dbe
00000200: acbd d9bc f513 04bc d5f7 4bbd 9d44 46bc
00000210: a633 2dbd cdbe a5bd 1b2e 8cbd dbcc 04be
00000220: 6c31 b6bd 2780 643c cd27 453d 3697 dabc
00000230: 66b2 f73c 391b b03d 8299 283c 4b6a 973d
00000240: 726c 3c3d 92d7 923d 873a 083d ae37 823c
00000250: 2524 6a3d ec18 c73d 9038 d63b 5f3d c73b
00000260: 9706 063d 9feb ba3d 5906 e43d 6547 e33d
00000270: ecaf b5bb b6fe f8bc 0e3b da3a ece4 71be
00000280: 1d2f 88be 075c 45be 99a3 26be c81a 4ebe
00000290: 82c6 4abc dd6f cebd 73c8 27be 072c c9bd
000002a0: dbc3 3d3c eac7 e9bc 89ca e23c f64d 56bd
000002b0: 7ba7 fdbd 4705 16be 2806 2b3c 6fa2 aa3c
000002c0: 68fa 273c a126 b73d 28b3 683c 3455 c4bc
000002d0: 0950 ca3c a36d 9e3d 3296 3d3d a88e 0c3e
000002e0: 6dd3 213e 542a 143e b57f 71bb 0291 f7ba
000002f0: c968 a8bd ab18 07be 1553 56be 76bd b7bd
00000300: f7e5 da3c a9ee 383d b392 bc3c 5a6e 863d
00000310: 9541 e83d 13dc 953d 016f 943e 1781 7f3e
00000320: 0bcf 683e 3af8 d03d b33e 3b3d 8348 e13d
00000330: e583 71be f250 83be ceff 14be 4c7a c1bd
00000340: 31a4 10be 9042 84bd 2f41 8b3d 5767 eabb
00000350: 1a09 29bb 830e 863d d5ac ec3c 7d47 7d3b
00000360: e904 c5bd fa61 efbd 4b4d 6ebd 411a 19bd
00000370: 9a60 74bd 09a2 98bc cfe9 c33d 7546 cf3d
00000380: f929 a73d e24c 57bd c23a 71bd 3031 63bd
00000390: ef89 44bd 2b01 a83c cabd 30bd 180c bebc
000003a0: 2ac0 a23d f239 633d f652 753e 6207 5d3e
000003b0: a0e7 503e 4f53 a73c ef31 14bb 625e 933d
000003c0: 480f 2cbe 5ecd 4cbe 9449 00be 94cb dfbd
000003d0: 08a9 f5bd 898a 84bd c4b9 00bc 7e0c 84bd
000003e0: 59c1 1fbb 9c37 da3d 9d56 833d 3416 943c
000003f0: 4416 10bd 5917 b5bd 671d 82bd 32dd 0abd

features.3.bias f4 [64]
-0.013038164 -0.051128604 -0.15960154 -0.0060236324 -0.11054274 0.10818396 -0.092824265 -0.08451716
-0.095474154 -0.073621124 -0.011082412 -0.03440066 0.014678573 -0.0089057 -0.06423447 -0.03518513
-0.14031471 -0.05869193 0.042254172 0.03194344 -0.06934583 -0.023814745 -0.013410916 -0.029663388
-0.05837492 -0.06007082 -0.12665159 -0.059328347 -0.026887529 -0.038042344 0.004952496 -0.15567896
-0.10355952 -0.0073695905 0.011894179 -0.061552625 -0.115819715 -0.06037291 0.008365492 -0.06480366
-0.08896754 0.13377118 -0.078267954 -0.00823831 0.021976342 -0.07434915 -0.023553837 -0.037787337
0.09191541 -0.097847186 0.03158251 0.036986377 -0.04136386 -0.010769108 -0.0734234 0.10010827
-0.05584584 -0.109614 -0.01286487 -0.035023212 0.087871164 -0.013662487 0.016135782 -0.15148576
00000000: 069e 55bc 3a6c 51bd 966e 23be e461 c5bb
00000010: 3b64 e2bd 8d8f dd3d a61a bebd 5517 adbd
00000020: f487 c3bd acc6 96bd 0193 35bc b5e7 0cbd
00000030: 667e 703c 37e9 11bc 5d8d 83bd 481e 10bd
00000040: a9ae 0fbe f366 70bd b612 2d3d 20d7 023d
00000050: 3005 8ebd 2417 c3bc 75b9 5bbc a200 f3bc
00000060: 8a1a 6fbd d20c 76bd f4b0 01be 4802 73bd
00000070: 3c43 dcbc 4ad2 1bbd 8c48 a23b 4e6a 1fbe
00000080: 0317 d4bd 9b7c f1bb cddf 423c 9b1e 7cbd
00000090: e332 edbd 9649 77bd 6b0f 093c c8b7 84bd
000000a0: 9d34 b6bd 50fb 083e f34a a0bd faf9 06bc
000000b0: bb07 b43c 5e44 98bd faf3 c0bc e5c6 1abd
000000c0: 253e bc3d 1b64 c8bd a95c 013d 077f 173d
000000d0: 276d 29bd ea70 30bc 025f 96bd 9105 cd3d
000000e0: 9cbe 64bd 4e7d e0bd 2dc7 52bc 8074 0fbd
000000f0: ccf5 b33d a0d8 5fbc 302f 843c 151f 1bbe

features.6.weight f4 [128, 64, 3, 3]
-0.11431229 -0.09691756 -0.06973379 -0.028801957 -0.039925396 -0.10454978 -0.096686095 -0.08243134
-0.0905464 0.06392864 0.07631055 0.045995712 0.07116871 0.052960847 0.065106176 0.013033809
0.0331472 0.0072391457 0.08858286 0.14413957 0.12583448 0.14077963 0.18157186 0.15886715
0.094195455 0.13023992 0.12196243 -0.055540327 0.007000407 -0.037064344 -0.04556546 0.006269866
0.012413401 -0.10318054 -0.07401712 -0.08143274 0.066520326 0.070407785 0.04690313 0.01946199
0.055159066 0.007444921 0.026062721 0.03346719 0.04908009 0.059916504 0.020307146 0.066504985
-0.021502906 0.0305064 0.040010832 -0.005906342 0.009244069 0.03961078 0.01868501 0.039984528
0.020819465 0.038626265 0.054771237 0.026196243 0.0043751383 0.03811331 -0.018316735 0.02935555
0.044213455 0.04469554 0.061256893 0.102479585 0.11135453 0.057179175 0.048288174 0.05892651
0.050741665 0.009069624 0.03419027 0.0074731903 0.03899094 0.036953807 0.0549714 0.037357647
-0.024971759 0.1318121 0.17727368 0.14252669 0.18375458 0.22019929 0.20866954 0.15105422
0.13970551 0.133496 0.0641776 0.087028496 0.10801497 0.054609142 0.025770126 0.06556308
0.05916621 0.037616007 0.04424646 -0.2024 -0.19993463 -0.25587296 -0.12367321 -0.07521862
-0.13280636 -0.15073076 -0.12294032 -0.15309072 -0.03759394 -0.04843518 -0.038397275 -0.052986532
0.003696743 -0.023838757 -0.07095373 -0.027116343 -0.092965685 -0.13043226 -0.085265726 -0.20303017
-0.09863896 -0.024482038 -0.20230536 -0.073228106 -0.049024235 -0.2837479 0.069394164 0.07093052
0.0821093 0.034642424 0.0844148 0.018374238 0.06120986 0.08305251 0.026791826 -0.037466124
-0.053870384 -0.14615254 0.10646928 0.07020772 0.042737424 0.057574637 0.06480242 0.11554196
0.107082605 0.0475831 0.04830383 0.09465039 0.07643889 0.08642666 0.025540872 0.07238353
0.009073149 -0.06542205 -0.06718693 -0.035996594 -0.04485005 -0.03889822 -0.07516505 -0.039165396
-0.05001998 -0.09109908 -0.033436093 -0.020443799 -0.018337581 -0.07916124 -0.06428418 -0.04375495
-0.057103578 -0.10838371 -0.13902801 -0.06853184 -0.12804869 -0.07082702 -0.079363234 -0.09162038
-0.093280755 -0.028602045 -0.04676988 -0.07099644 0.10434718 0.113944925 0.08309047 0.07141552
0.08840258 0.089010626 0.025277687 0.08805094 0.06547304 0.19010913 0.15461022 0.1636862
0.20770414 0.172281 0.14813524 0.16018172 0.22458825 0.17541645 -0.109127 -0.07454213
-0.111553445 -0.14062715 -0.12392021 -0.120863415 -0.13055386 -0.15211068 -0.11111774 -0.21123184
-0.11530792 -0.25183132 -0.13023987 -0.1419686 -0.18532555 -0.24131212 -0.21255168 -0.3223466
0.07072941 0.022582246 0.035659753 0.07885181 0.03811165 0.054412786 0.037757352 0.019220237
0.028630383 0.010506725 0.011147671 0.056374867 0.011917233 0.045496106 0.017535208 -0.03974349
-0.07174285 -0.062859096 0.26765504 0.25900573 0.29391533 0.10334002 0.15776545 0.12994717
0.13310228 0.13377167 0.17521505 0.07008813 0.033235326 0.06526667 0.09010967 0.052352782
0.08918485 0.012741034 -0.010695433 -0.009926363 -0.13798925 -0.0644336 -0.11304269 -0.13445045
00000000: 901c eabd b77c c6bd 97d0 8ebd 15f2 ebbc
00000010: d088 23bd 321e d6bd 5c03 c6bd c3d1 a8bd
00000020: 6470 b9bd 05ed 823d b548 9c3d 0066 3c3d
00000030: e7c0 913d 79ed 583d 6356 853d c28b 553c
00000040: 5cc5 073d 5b36 ed3b ee6a b53d 5399 133e
00000050: c1da 003e 8928 103e f9ed 393e 12ae 223e
00000060: 8ce9 c03d 9d5d 053e 70c7 f93d 417e 63bd
00000070: ac63 e53b c8d0 17bd d9a2 3abd 7373 cd3b
00000080: 9461 4b3c 5250 d3bd 4a96 97bd 35c6 a6bd
00000090: cf3b 883d f531 903d 7f1d 403d c06e 9f3c
000000a0: 79ee 613d 86f4 f33b 7d81 d53c e414 093d
000000b0: 3408 493d 026b 753d 2c5b a63c c433 883d
000000c0: dd26 b0bc 8fe8 f93c 66e2 233d fd89 c1bb
000000d0: 7074 173c ea3e 223d 4e11 993c d1c6 233d
000000e0: 958d aa3c 9336 1e3d ce57 603d 8199 d63c
000000f0: 525d 8f3b b41c 1c3d fa0c 96bc 0d7b f03c
00000100: 2b19 353d ac12 373d 82e8 7a3d d1e0 d13d
00000110: d80d e43d b634 6a3d d2c9 453d ed5c 713d
00000120: 7ed6 4f3d c398 143c 190b 0c3d aae1 f43b
00000130: f7b4 1f3d e05c 173d b129 613d 5504 193d
00000140: 9391 ccbc c0f9 063e 3b87 353e 84f2 113e
00000150: 292a 3c3e ec7b 613e 78ad 553e f5ad 1a3e
00000160: f60e 0f3e 2db3 083e 8c6f 833d ff3b b23d
00000170: f436 dd3d d6ad 5f3d df1b d33c f045 863d
00000180: 4558 723d 3e13 1a3d c73b 353d f241 4fbe
00000190: aabb 4cbe c801 83be 6148 fdbd 380c 9abd
000001a0: 64fe 07be 2a59 1abe 22c8 fbbd d0c3 1cbe
000001b0: 1afc 19bd f863 46bd 7646 1dbd 6808 59bd
000001c0: 0e45 723b 7f49 c3bc 3050 91bd 1823 debc
000001d0: cb64 bebd 0990 05be cc9f aebd 24e7 4fbe
000001e0: 3903 cabd 8e8e c8bc 2329 4fbe 9ef8 95bd
000001f0: a3cd 48bd 6847 91be 871e 8e3d 0544 913d
00000200: ec28 a83d 37e5 0d3d abe1 ac3d 9285 963c
00000210: 31b7 7a3d 6f17 aa3d 887a db3c 1476 19bd
00000220: 31a7 5cbd 03a9 15be 910c da3d 11c9 8f3d
00000230: 700d 2f3d 62d3 6b3d 22b7 843d 43a1 ec3d
00000240: 204e db3d 7fe6 423d 3dda 453d 10d8 c13d
00000250: fe8b 9c3d 7600 b13d 173b d13c d13d 943d
00000260: 8ca7 143c fffb 85bd 4d99 89bd 2a71 13bd
00000270: b0b4 37bd bd53 1fbd 22f0 99bd e56b 20bd
00000280: c0e1 4cbd 2892 babd 49f4 08bd c179 a7bc
00000290: b238 96bc 4a1f a2bd 6da7 83bd 6438 33bd
000002a0: 71e5 69bd 47f8 ddbd 5c5d 0ebe 6c5a 8cbd
000002b0: 321f 03be c20d 91bd 3189 a2bd 77a3 bbbd
000002c0: fb09 bfbd d64e eabc c691 3fbd 9566 91bd
000002d0: f9b3 d53d f55b e93d 562b aa3d 4d42 923d
000002e0: 690c b53d 344b b63d 2713 cf3c 0d54 b43d
000002f0: bb16 863d f8ab 423e 2452 1e3e 5b9d 273e
00000300: 65b0 543e 6e6a 303e c4b0 173e ad06 243e
00000310: 76fa 653e 5fa0 333e fa7d dfbd 8ba9 98bd
00000320: 2276 e4bd 9000 10be e1c9 fdbd 3d87 f7bd
00000330: e9af 05be e7c2 1bbe b391 e3bd 294d 58be
00000340: 8f26 ecbd 09f0 80be 9a5d 05be 3760 11be
00000350: fbc5 3dbe 861a 77be 26a7 59be 9d0a a5be
00000360: 95da 903d 67fe b83c f60f 123d 0f7d a13d
00000370: f61a 1c3d f1df 5e3d 74a7 1a3d c273 9d3c
00000380: 448a ea3c 6624 2c3c b9a4 363c 55e9 663d
00000390: 7f40 433c 205a 3a3d ffa5 8f3c 12ca 22bd
000003a0: eaed 92bd 45bc 80bd 150a 893e 669c 843e
000003b0: 127c 963e efa3 d33d 448d 213e df10 053e
000003c0: f74b 083e 71fb 083e 936b 333e 5e8a 8f3d
000003d0: c421 083d 88aa 853d 6b8b b83d df6f 563d
000003e0: 8ca6 b63d c5bf 503c e63b 2fbc 2fa2 22bc
000003f0: 0e4d 0dbe c3f5 83bd ed82 e7bd 61ad 09be

features.6.bias f4 [128]
-0.05512328 -0.10005737 -0.09119641 0.07706158 -0.034469288 -0.004172229 -0.07012012 -0.022215838
0.067307144 -0.078345895 -0.10482487 0.06959215 0.004091048 0.0042648613 -0.021339875 -0.05712228
0.10164774 -0.07122084 -0.05942605 0.049238056 0.054617215 -0.0625366 -0.016842747 -0.046436574
0.08463559 -0.028739592 0.08283308 -0.075043716 -0.06292079 -0.0802499 -0.02041753 0.07984279
0.033131476 0.07370126 0.030268593 0.07658425 0.059888292 -0.0794813 0.07402877 -0.051729362
0.3281948 0.08527225 0.06647734 -0.071385495 0.094367996 -0.033576902 0.062103488 -0.09181757
0.032437667 -0.10449405 -0.032036748 0.03532348 -0.068100326 -0.048614953 0.043692637 -0.10058335
-0.009213154 0.06172065 -0.097546436 0.06343592 0.038958028 -0.08527857 0.048015438 0.08561639
0.08471229 -0.055728324 -0.07687125 -0.049696956 -0.03579644 -0.057147127 0.054192904 -0.046407904
0.095359914 -0.07583234 -0.03238323 0.04725503 -0.055102877 0.024071604 0.096864805 0.0751425
-0.074170925 0.07858388 0.049304016 -0.038697954 0.093396805 -0.040390015 -0.10336873 -0.09242173
-0.08575497 -0.10477153 0.020750966 0.079438016 -0.0344929 -0.019508855 -0.040186357 -0.102114916
-0.07814613 0.08351127 0.084574625 -0.060801703 -0.09157094 0.060545873 -0.036142956 -0.08267927
-0.08897355 -0.0748963 -0.12586749 0.085569136 0.041724075 -0.09577437 -0.08429931 -0.08732339
0.084904894 0.08909718 -0.031635676 0.06499565 0.19338675 -0.045287136 0.06278896 -0.076679364
0.076610796 -0.029712636 -0.10494647 0.09714065 -0.054938897 -0.041555483 0.019929657 -0.06868704
00000000: f3c8 61bd e1ea ccbd 2fc5 babd 76d2 9d3d
00000010: ab2f 0dbd 32b7 88bb 239b 8fbd fdfd b5bc
00000020: 54d8 893d d073 a0bd 6cae d6bd 5486 8e3d
00000030: 330e 863b 40c0 8b3b f6d0 aebc 0df9 69bd
00000040: b12c d03d 3bdc 91bd bb68 73bd d8ad 493d
00000050: 4db6 5f3d 3013 80bd cdf9 89bc 4734 3ebd
00000060: 6d55 ad3d 4b6f ebbc 64a4 a93d 85b0 99bd
00000070: 9ddc 80bd 0f5a a4bd aa42 a7bc 9e84 a33d
00000080: dfb4 073d b0f0 963d d7f5 f73c 34d8 9c3d
00000090: 6d4d 753d 18c7 a2bd 659c 973d 2be2 53bd
000000a0: 2609 a83e 38a3 ae3d 4625 883d 8f32 92bd
000000b0: 0244 c13d ef87 09bd 3a60 7e3d da0a bcbd
000000c0: 5cdd 043d fa00 d6bd f738 03bd 5aaf 103d
000000d0: 2f78 8bbd 7920 47bd 0df7 323d a5fe cdbd
000000e0: c5f2 16bc cbce 7c3d 6dc6 c7bd b1ea 813d
000000f0: 7492 1f3d 88a6 aebd d6ab 443d a557 af3d
00000100: a37d ad3d 6243 64bd ad6e 9dbd 098f 4bbd
00000110: 4a9f 12bd 1b13 6abd 61f9 5d3d 3716 3ebd
00000120: 0f4c c33d fc4d 9bbd 47a4 04bd 7e8e 413d
00000130: 8eb3 61bd d031 c53c 0e61 c63d 50e4 993d
00000140: ede6 97bd 96f0 a03d 02f3 493d bf81 1ebd
00000150: d346 bf3d 0070 25bd fcb2 d3bd 9b47 bdbd
00000160: 4da0 afbd 7592 d6bd eefd a93c 66b0 a23d
00000170: 6d48 0dbd 09d1 9fbc 739a 24bd a021 d1bd
00000180: 140b a0bd f507 ab3d 7635 ad3d 350b 79bd
00000190: 8c89 bbbd f3fe 773d a30a 14bd c053 a9bd
000001a0: c437 b6bd 3b63 99bd 68e3 00be df3e af3d
000001b0: dde6 2a3d 5a25 c4bd 1ea5 acbd 9bd6 b2bd
000001c0: 9ee2 ad3d 9578 b63d 6994 01bd 701c 853d
000001d0: 2d07 463e 017f 39bd 8097 803d 120a 9dbd
000001e0: 1fe6 9c3d ea67 f3bc 2dee d6bd adf1 c63d
000001f0: 9c07 61bd 1536 2abd 8543 a33c caab 8cbd

fc.1.weight f4 [1, 128]
0.16612667 0.1421745 0.16823992 -0.2030289 0.11644199 -0.23274331 0.23572333 0.12525922
-0.16554986 0.13609642 0.24506372 -0.15437801 -0.23272142 -0.19692734 0.11786659 -0.3314578
-0.174471 0.107930005 0.09629759 -0.15270957 0.3330801 0.14716554 0.09265881 0.08989095
-0.18014587 0.12172362 0.29133892 0.2427792 0.15933712 0.26345086 0.11796047 -0.19879423
-0.21610247 -0.1435852 -0.14049834 -0.19496247 -0.20650603 0.17655313 -0.15650892 0.117219284
-0.82779807 -0.22868246 -0.21178474 0.21428677 -0.20169683 -0.4637872 -0.16029671 0.18961476
-0.21455763 0.20644116 -0.22716492 -0.21834815 0.15293764 0.124000475 -0.18437107 0.15053247
0.2592694 -0.18857524 0.18384546 -0.20726006 -0.19117004 0.17436555 0.26942077 -0.2050256
-0.17824386 0.15075901 0.14398272 0.14727527 -0.06252594 0.12332193 -0.17117344 0.13570155
-0.15787289 0.12453585 0.16898194 -0.14786358 0.1379394 -0.15472142 -0.20998062 -0.16178812
0.17024046 -0.14667316 -0.20579131 0.1690756 -0.16085419 0.08326541 0.2644962 0.15792255
0.13249362 0.2272059 0.30345377 -0.17774835 -0.07046764 0.09525674 0.107692555 0.21710962
0.17447208 -0.16486982 -0.13666798 0.14686327 0.10964887 -0.16873845 -0.30889186 0.15033244
0.18253024 0.20148072 0.15383463 -0.1348901 -0.19532499 0.19012809 0.14998949 0.12449162
-0.1760661 -0.16728379 0.15724386 -0.17421097 -0.48288155 0.0019216482 -0.17241564 0.134955
-0.20679207 0.1257685 0.18771212 -0.15630604 -0.06916443 0.10059357 -0.18662399 0.14084812
00000000: 1c1d 2a3e 3196 113e 1647 2c3e cfe6 4fbe
00000010: 2379 ee3d 4354 6ebe 7561 713e f443 003e
00000020: e785 29be dc5c 0b3e fcf1 7a3e 4515 1ebe
00000030: 864e 6ebe 52a7 49be 0a64 f13d d6b4 a9be
00000040: 87a8 32be 680a dd3d ac37 c53d e65f 1cbe
00000050: 7a89 aa3e 90b2 163e e7c3 bd3d bf18 b83d
00000060: 2978 38be 3c4a f93d 602a 953e 1c9b 783e
00000070: 4529 233e 08e3 863e 4295 f13d b790 4bbe
00000080: f749 5dbe 0008 13be ccde 0fbe 3ea4 47be
00000090: 5176 53be 58ca 343e e043 20be aa10 f03d
000000a0: 93ea 53bf bc2b 6abe 19de 58be fe6d 5b3e
000000b0: 9d89 4ebe 8475 edbe d224 24be 5f2a 423e
000000c0: ffb4 5bbe 5065 533e ec9d 68be a896 5fbe
000000d0: af9b 1c3e f6f3 fd3d c5cb 3cbe 2f25 1a3e
000000e0: f5be 843e de19 41be fc41 3c3e fb3b 54be
000000f0: 14c2 43be e28c 323e 85f1 893e 3bf2 51be
00000100: 8f85 36be 9260 1a3e 3570 133e 54cf 163e
00000110: 9a0d 80bd 3590 fc3d 1748 2fbe 59f5 0a3e
00000120: 6ea9 21be a70c ff3d 9a09 2d3e 8d69 17be
00000130: fc3f 0d3e 4b6f 1ebe 2905 57be c9ab 25be
00000140: 8453 2e3e 7d31 16be f5ba 52be 2722 2d3e
00000150: f6b6 24be 0e87 aa3d 0c6c 873e 73b6 213e
00000160: 68ac 073e aaa8 683e 4b5e 9b3e aa03 36be
00000170: 5751 90bd f715 c33d ea8d dc3d fc51 5e3e
00000180: cfa8 323e a2d3 28be b1f2 0bbe 5363 163e
00000190: 968f e03d c6c9 2cbe 1327 9ebe bff0 193e
000001a0: 35e9 3a3e f650 4e3e d386 1d3e a120 0abe
000001b0: 4603 48be f0b0 423e d896 193e 76f5 fe3d
000001c0: ac4a 34be 714c 2bbe 8904 213e 5c64 32be
000001d0: 403c f7be d0df fb3a ba8d 30be a531 0a3e
000001e0: 4dc1 53be 75c9 003e 9b37 403e b10e 20be
000001f0: 15a6 8dbd 0004 ce3d 5c1a 3fbe 7d3a 103e
